onnx/legged.onnx (onnx, 758229 bytes, 8 tensors)

0.weight f4 [512, 45]
-0.009324437 0.11645912 -0.076175 -0.34862942 0.12468335 0.11358678 -0.04752056 -0.105429895
-0.14355864 0.22231965 -0.118182376 0.21334144 -0.17445622 0.17338629 0.4467337 -0.23964824
0.250658 -0.04210303 -0.035621792 0.21606271 -0.27863786 0.2572611 -0.21636471 -0.5646164
0.049194787 0.10508476 -0.09582317 -0.15443075 -0.051514365 0.39104673 -0.20521222 0.08148611
-0.17715257 -0.07137187 -0.032989424 -0.033123683 -0.08212057 0.05170984 -0.06618358 -0.020175558
-0.043499112 0.027291251 0.015166307 -0.05671743 0.053785503 0.09642243 0.022419225 0.31341797
-0.28312093 -0.5979603 -0.05244801 -0.084360525 0.03664474 -0.17589493 -0.12343088 0.077654324
0.24386586 0.041684885 0.25355318 -0.067679025 0.13722079 0.021676118 0.16402917 0.1231091
-0.4421345 0.14457507 0.13891596 -0.5017789 -0.26266003 0.06877453 0.3632096 0.075187236
0.31707275 0.45568514 0.116578475 -0.23153993 -0.17215326 -0.2512849 0.10163057 0.0696577
-0.03305439 0.06971219 0.019764176 0.09368034 -0.026186764 0.06320121 -0.08491089 -0.03309125
0.0581218 -0.10781918 -0.40199745 0.015168801 0.049208593 -0.25929323 0.18025373 -0.10628967
-0.11747216 -0.11844461 -0.5288577 0.059007365 0.10976011 0.14681444 -0.2704277 0.2904408
-0.094004594 0.055363975 -0.07363344 -0.0034204863 -0.14869407 0.01423353 -0.3253481 -0.28488204
0.2513588 -0.5360323 -0.29272726 -0.13458148 0.6158695 -0.2629311 -0.06580709 0.06533356
0.013891989 -0.36386257 -0.26430026 0.0066659097 -0.05176662 0.012889398 -0.017661344 0.016494408
0.039134096 -0.0143569065 -0.0035076155 -0.011889821 -0.04757586 0.03975195 0.022956207 -0.04981728
0.14436376 0.21600033 0.5788357 -0.22289479 0.047595844 0.025241235 -0.10567723 -0.43053904
0.29191035 -0.093016654 -0.049560424 -0.31671688 0.3849975 0.18309326 -0.20107001 0.33276656
0.23471883 0.18516287 -0.17246884 0.009449166 -0.51402134 -0.6164994 -0.28976932 0.25490707
0.27052617 -0.075201266 -0.00499504 0.032651648 -0.058802325 -0.017803382 0.112235874 -0.14482939
-0.048487913 0.0548089 -0.05486867 -0.031307984 -0.05405825 0.049393572 0.03340819 0.030876858
-0.06638259 -0.052098837 -0.00567352 0.02721651 -0.06926132 -0.10200598 -0.17497934 0.33507627
-0.55524576 -0.018645681 -0.041498203 -0.05286764 0.27860883 -0.07381474 0.3000951 0.26745018
0.24372062 -0.24932605 -0.16183898 0.1861437 -0.13090771 0.18462442 0.23003286 -0.0722029
0.20290914 -0.3226539 -0.27450088 0.112248786 0.28502566 0.35704035 0.34883925 -0.3357439
-0.08612448 0.22506844 0.52613443 0.09120218 -0.17498083 -0.013515443 -0.012578147 0.021569502
-0.06366279 -0.07151934 -0.0017684151 0.026880978 0.023802219 -0.049554 -0.02112884 -0.009229378
-0.004927421 -0.011912311 -0.18332437 -0.25330058 -0.618899 0.4326547 0.016436333 0.016048882
-0.05062139 -0.0823714 -0.35712716 -0.15996443 0.16778156 0.11745531 -0.36160666 -0.35695603
-0.046368323 -0.18248099 -0.32436883 -0.36678395 -0.28709668 0.181741 -0.0036747195 -0.25713673
-0.061287932 -0.09108534 -0.010692599 0.16213058 -0.3901739 -0.066694014 -0.25479224 0.015321053
00000000: 86c5 18bc 1e82 ee3d a301 9cbd 8e7f b2be
00000010: fc59 ff3d 30a0 e83d eba4 42bd a1eb d7bd
00000020: 0901 13be c3a7 633e 9a09 f2bd 2e76 5a3e
00000030: a7a4 32be 2d8c 313e 48ba e43e 5966 75be
00000040: 3f56 803e 3a74 2cbd 28e8 11bd 8b3f 5d3e
00000050: 9fa9 8ebe bab7 833e b68e 5dbe b38a 10bf
00000060: 7980 493d ae36 d73d f03e c4bd 1823 1ebe
00000070: ba00 53bd 4737 c83e 2723 52be 31e2 a63d
00000080: 7c67 35be 6a2b 92bd eb1f 07bd b3ac 07bd
00000090: d42e a8bd b2cd 533d 428b 87bd 3647 a5bc
000000a0: 202c 32bd e791 df3c 1a7c 783c 8950 68bd
000000b0: 304e 5c3d 1f79 c53d 86a8 b73c 5278 a03e
000000c0: 3af5 90be ed13 19bf b9d3 56bd 36c5 acbd
000000d0: cb18 163d cd1d 34be 54c9 fcbd 3b09 9f3d
000000e0: f9b7 793e c5bd 2a3d b9d1 813e 4d9b 8abd
000000f0: 9b83 0c3e 1d92 b13c 43f7 273e a020 fc3d
00000100: 745f e2be 7d0b 143e fc3f 0e3e 9574 00bf
00000110: 607b 86be a9d9 8c3d 9cf6 b93e c4fb 993d
00000120: 5c57 a23e 904f e93e b2c0 ee3d ce18 6dbe
00000130: f248 30be 6aa8 80be b023 d03d b2a8 8e3d
00000140: 0a64 07bd 44c5 8e3d 7be8 a13c 7adb bf3d
00000150: a085 d6bc a36f 813d c3e5 adbd b18a 07bd
00000160: 2011 6e3d 4dd0 dcbd 9cd2 cdbe 9086 783c
00000170: f38e 493d 15c2 84be 6f94 383e 66ae d9bd
00000180: 3e95 f0bd 1693 f2bd 3863 07bf b5b1 713d
00000190: e9c9 e03d 8656 163e 8075 8abe a8b4 943e
000001a0: 7b85 c0bd 56c5 623d 21cd 96bd 3d2a 60bb
000001b0: 4243 18be c033 693c 0794 a6be 0fdc 91be
000001c0: 1ab2 803e 6a39 09bf 59e0 95be bacf 09be
000001d0: a0a9 1d3f e89e 86be dec5 86bd 9acd 853d
000001e0: 3a9b 633c 324c babe 5d52 87be b46d da3b
000001f0: 3c09 54bd 0e2e 533c 86ae 90bc 481f 873c
00000200: 134b 203d 3b39 6bbc 06e0 65bb 86cd 42bc
00000210: e8de 42bd f1d2 223d a80e bc3c 340d 4cbd
00000220: 18d4 133e 312f 5d3e 942e 143f 883e 64be
00000230: dcf3 423d b5c6 ce3c 4e6d d8bd 9d6f dcbe
00000240: 4675 953e 847f bebd dfff 4abd b728 a2be
00000250: 641e c53e cd7c 3b3e 4ce5 4dbe 6160 aa3e
00000260: 225a 703e 569b 3d3e ac9b 30be add0 1a3c
00000270: e796 03bf e8d2 1dbf a55c 94be 2e83 823e
00000280: 6882 8a3e 1f03 9abd 6fad a3bb bcbd 053d
00000290: b5da 70bd 66d8 91bc ecdb e53d 284e 14be
000002a0: 439b 46bd 4c7f 603d f8bd 60bd cd3c 00bd
000002b0: 2f6c 5dbd ea50 4a3d 07d7 083d 77f1 fc3c
000002c0: 98f3 87bd 9765 55bd efe8 b9bb 29f5 de3c
000002d0: e1d8 8dbd 83e8 d0bd c92d 33be 1e8f ab3e
000002e0: 9624 0ebf d4be 98bc 05fa 29bd bd8b 58bd
000002f0: d1a5 8e3e 2f2c 97bd 11a6 993e 3bef 883e
00000300: e691 793e 544f 7fbe 1eb9 25be 749c 3e3e
00000310: ac0c 06be 2f0e 3d3e bc8d 6b3e 1ddf 93bd
00000320: 6ac7 4f3e e432 a5be 618b 8cbe b1e2 e53d
00000330: e2ee 913e fecd b63e 0f9b b23e a0e6 abbe
00000340: 0862 b0bd 5778 663e bfb0 063f 35c8 ba3d
00000350: 2d2e 33be e06f 5dbc 9314 4ebc 86b2 b03c
00000360: a361 82bd bb78 92bd 2aca e7ba 7f35 dc3c
00000370: dffc c23c 23f9 4abd 6416 adbc d136 17bc
00000380: 3476 a1bb db2b 43bc 62b9 3bbe 9db0 81be
00000390: 2a70 1ebf eb84 dd3e 7da5 863c f278 833c
000003a0: 6058 4fbd 56b2 a8bd 5fd9 b6be b7cd 23be
000003b0: eece 2b3e 698c f03d 8224 b9be f1c2 b6be
000003c0: b6ec 3dbd 4cdc 3abe ac13 a6be 1bcb bbbe
000003d0: 56fe 92be 501a 3a3e 90d3 70bb 6da7 83be
000003e0: 0e09 7bbd f38a babd 0330 2fbc 8f05 263e
000003f0: e0c4 c7be df96 88bd 2174 82be 2705 7b3c

0.bias f4 [512]
0.070081145 -0.007370087 -0.14768495 -0.028510453 0.13526835 -0.061961833 0.18352042 0.086298525
-0.21155399 -0.22688751 -0.076917425 -0.15070894 -0.013544655 -0.09913098 -0.15384576 0.09316652
0.06475925 -0.1667765 0.20621671 -0.053348783 0.0139760235 -0.16136208 0.15118428 -0.012756043
-0.010387031 -0.033094376 0.10471371 -0.08882795 0.109904915 -0.09784066 0.05055123 -0.029548004
-0.23285176 -0.10227988 -0.20156178 -0.023414977 0.04437911 0.052433882 0.02593364 0.10179269
0.18278606 -0.07221628 0.1544222 0.25300497 0.2425519 0.08326117 -0.19162366 -0.088456884
0.019526534 0.16526066 -0.050760873 0.11206668 0.16750908 0.13195167 -0.12478882 0.11880772
-0.03585347 0.11999941 0.12478188 0.101215966 0.1751232 0.039480824 0.064063676 -0.14337082
0.055418037 -0.18387593 -0.15421133 0.1432298 0.03735807 -0.09366562 0.0966927 -0.01172755
-0.029050183 -0.050822113 -0.044153783 -0.17257741 -0.16913193 -0.053717595 -0.108754165 0.011939215
0.16516526 -0.072333634 -0.16328526 -0.16496818 0.12042622 -0.040722784 -0.07046538 -0.044421654
-0.056462422 0.008853371 0.048140157 0.044077747 -0.013343478 -0.16268796 -0.009557893 -0.078738905
-0.044536468 -0.00773012 -0.07500923 0.13712676 -0.06784528 0.10354137 -0.13430516 -0.07647936
0.086784594 0.06912705 -0.17540404 -0.15236568 -0.12135518 -0.02731986 0.15247099 0.05896127
-0.03632482 0.1948802 0.1361943 0.119888805 0.111467965 -0.10189677 0.013779251 -0.18033367
-0.21444556 -0.18993475 0.17536552 -0.0681329 0.11339366 -0.090413935 -0.091233104 -0.21727934
0.14568092 0.11394799 -0.20626181 -0.06543222 0.21119735 -0.0041135815 0.105961196 -0.2986274
-0.028835258 -0.009630785 0.06307534 0.15171692 -0.1212633 -0.025759412 0.08494664 -0.09943877
0.16535765 -0.05274471 -0.13737163 0.018310064 0.07719397 0.16972151 -0.16941741 -0.027371408
0.17408091 -0.02154962 0.045447875 0.01569009 0.06981997 0.21838354 -0.20851421 0.14204976
0.091632806 -0.11730759 0.043357573 0.20248687 -0.17594063 -0.14604199 -0.08544778 0.11997998
-0.123674 -0.14954118 0.13911626 -0.25055584 0.08634389 -0.03076282 -0.028909806 -0.033164322
0.08247682 -0.13574491 -0.1210938 0.06442213 0.038671654 -0.18965735 -0.07842014 -0.24163637
0.11979131 0.061190892 -0.049599975 0.17559513 0.06573865 -0.06329704 -0.029824376 0.010876587
0.06663039 0.17642008 -0.14925507 -0.100572 0.008647252 0.046435922 0.15675084 -0.147937
-0.13137051 -0.08160796 -0.03933735 -0.21906759 0.29866585 0.06608341 -0.005355197 -0.07061171
0.013836457 -0.08638424 -0.0010290474 0.03590735 0.20369357 -0.115455344 0.046472777 -0.023121383
0.15565747 0.15023164 0.14496571 -0.05678447 0.16072139 -0.2605433 0.026692951 -0.078957714
0.1413254 -0.10555158 -0.030846206 0.021475157 0.10871662 -0.121618405 -0.025252266 0.21100214
0.0509648 0.06988232 -0.18871896 -0.2674938 -0.13764428 0.034899753 -0.032342922 -0.07668967
-0.2556624 -0.029174622 0.24697687 0.093389064 -0.096890256 -0.029770827 -0.18807212 0.17382981
-0.17916422 0.10603698 0.04305975 0.13269162 0.0510114 -0.17212562 -0.046964474 0.1476468
00000000: b486 8f3d c580 f1bb b93a 17be c18e e9bc
00000010: c983 0a3e b1cb 7dbd c7ec 3b3e 48bd b03d
00000020: 9ca1 58be 3355 68be e286 9dbd 7253 1abe
00000030: 67ea 5dbc 2f05 cbbd be89 1dbe 17ce be3d
00000040: 7fa0 843d 75c7 2abe 792a 533e 4184 5abd
00000050: b1fb 643c 1a3c 25be 0dd0 1a3e b9fe 50bc
00000060: 5e2e 2abc f88d 07bd 2474 d63d 6eeb b5bd
00000070: d415 e13d af60 c8bd ce0e 4f3d a80e f2bc
00000080: b170 6ebe 1d78 d1bd 3666 4ebe c4d0 bfbc
00000090: dfc6 353d e9c4 563d c972 d43c b078 d03d
000000a0: 452c 3b3e 21e6 93bd da20 1e3e de89 813e
000000b0: 865f 783e d584 aa3d fe38 44be e228 b5bd
000000c0: 1cf6 9f3c 173a 293e a2ea 4fbd 3783 e53d
000000d0: 8087 2b3e 571e 073e 4891 ffbd 7651 f33d
000000e0: 17db 12bd 40c2 f53d a48d ff3d 514a cf3d
000000f0: 7f53 333e a5b6 213d d133 833d cdcf 12be
00000100: 06fe 623d f949 3cbe 93e9 1dbe d5aa 123e
00000110: c704 193d c3d3 bfbd d306 c63d e924 40bc
00000120: a6fa edbc d92a 50bd 99da 34bd 22b8 30be
00000130: ec30 2dbe fb06 5cbd 81ba debd b29c 433c
00000140: 1521 293e a823 94bd 4034 27be 6bed 28be
00000150: 06a2 f63d efcc 26bd 2750 90bd 7bf3 35bd
00000160: 2445 67bd bb0d 113c 9d2e 453d de8a 343d
00000170: 9a9e 5abc ac97 26be b598 1cbc dd41 a1bd
00000180: df6b 36bd f24c fdbb 709e 99bd f56a 0c3e
00000190: 77f2 8abd 7f0d d43d 4b87 09be 36a1 9cbd
000001a0: 1fbc b13d 7c92 8d3d 1e9d 33be c005 1cbe
000001b0: 1189 f8bd e6cd dfbc 5b21 1c3e 5f81 713d
000001c0: 56c9 14bd ad8e 473e 8576 0b3e 4388 f53d
000001d0: 5149 e43d 41af d0bd 5ec2 613c 64a9 38be
000001e0: 9e97 5bbe 417e 42be 0593 333e 4389 8bbd
000001f0: ef3a e83d f12a b9bd 6cd8 babd 7a7e 5ebe
00000200: 612d 153e 905d e93d 4c36 53be 5401 86bd
00000210: 1e44 583e 39cb 86bb 2f02 d93d b1e5 98be
00000220: eb37 ecbc 71ca 1dbc a52d 813d ae5b 1b3e
00000230: e558 f8bd 6705 d3bc 81f8 ad3d 8ea6 cbbd
00000240: 8453 293e d60a 58bd 26ab 0cbe fdfe 953c
00000250: df17 9e3d 7acb 2d3e c27b 2dbe 013a e0bc
00000260: 4442 323e d488 b0bc 8d27 3a3d 8188 803c
00000270: c6fd 8e3d ef9f 5f3e c084 55be 7e75 113e
00000280: fba9 bb3d f63e f0bd b697 313d b858 4f3e
00000290: c829 34be 088c 15be 3fff aebd 10b8 f53d
000002a0: cb48 fdbd 5321 19be 7e74 0e3e db48 80be
000002b0: 11d5 b03d 4f02 fcbc 42d4 ecbc 50d7 07bd
000002c0: 9be9 a83d b700 0bbe 0700 f8bd c0ef 833d
000002d0: 2b66 1e3d 8935 42be bd9a a0bd 866f 77be
000002e0: 2555 f53d 4da3 7a3d 5829 4bbd 36cf 333e
000002f0: fca1 863d e1a1 81bd 4052 f4bc b633 323c
00000300: 8475 883d 77a7 343e 52d6 18be b1f8 cdbd
00000310: 34ad 0d3c 9833 3e3d 4b83 203e cc7c 17be
00000320: fe85 06be 1322 a7bd 3320 21bd 4153 60be
00000330: bbea 983e bd56 873d a67a afbb df9c 90bd
00000340: 4fb2 623c 38ea b0bd 1ae1 86ba 9613 133d
00000350: 0c95 503e da73 ecbd 3d5a 3e3d 0e69 bdbc
00000360: ac64 1f3e 53d6 193e e471 143e d596 68bd
00000370: 2694 243e ee65 85be 2dab da3c 95b4 a1bd
00000380: 9bb7 103e 6d2b d8bd 2fb1 fcbc abec af3c
00000390: d2a6 de3d 1213 f9bd d7dd cebc f210 583e
000003a0: 77c0 503d 761e 8f3d 8b3f 41be f3f4 88be
000003b0: 9ff2 0cbe 0bf3 0e3d 037a 04bd 790f 9dbd
000003c0: 2fe6 82be 9eff eebc 81e7 7c3e c442 bf3d
000003d0: 666e c6bd f3e1 f3bc fa95 40be 7100 323e
000003e0: d376 37be eb29 d93d 6c5f 303d 50e0 073e
000003f0: 54f1 503d b341 30be d25d 40bd b930 173e

2.weight f4 [256, 512]
0.056847222 -0.036137074 -0.043808963 0.028754042 -0.02224019 0.012221209 -0.05834542 -0.029361593
-0.04215339 0.073422864 0.017032193 0.18436521 -0.0279466 0.042173453 0.07680645 -0.12629801
-0.0459351 0.14839983 0.05673811 -0.07239156 0.09123003 0.06488528 0.07785424 -0.12671442
0.1279491 0.055429675 0.04814435 0.021793881 0.03884517 -0.03813931 0.17928684 -0.1317924
0.12005101 0.11883611 0.25501543 0.023586875 0.14585158 -0.03007028 -0.074336074 0.078671426
-0.041170742 0.10718013 0.062121414 -0.13091093 -0.013823963 0.1053236 0.057510413 -0.08623177
-0.01571757 -0.12688373 0.009079343 -0.15159553 0.0027847046 0.02997566 -0.15480794 0.051732115
-0.051681515 -0.028945766 0.06741114 -0.0010113801 -0.13210201 -0.072273746 -0.012463298 0.10429288
0.12241255 -0.14200151 0.04785833 0.005100843 0.040410746 -0.23679227 0.103581235 0.11391814
-0.08678704 0.09168206 -0.104784355 0.01301566 0.07473788 -0.0068639545 0.00037600513 -0.107785635
0.015703265 -0.073594816 -0.036464322 0.10732959 -0.050587837 -0.00796454 -0.039486293 -0.007916172
-0.02109775 -0.03778621 -0.06133815 -0.08707495 -0.0008798533 0.1060027 0.054375976 -0.13327357
0.036839277 0.058229994 -0.012241643 -0.021091012 -0.06339797 -0.026713818 -0.10165417 0.057770517
0.040226467 -0.008489333 -0.047374483 -0.11119222 0.0066129197 0.05238006 -0.19910736 -0.03570221
-0.029553173 -0.024979614 -0.05629 0.077424884 -0.09357036 -0.026142716 -0.05403865 0.050307546
0.036078755 0.114408545 -0.008436767 -0.045808524 -0.015094716 -0.033058073 0.03276815 0.1422217
0.05397598 -0.15124233 0.054916486 -0.041735582 -0.09586892 0.06606963 -0.19948782 0.12026632
0.06563036 0.05591373 -0.19456342 -0.053589847 0.028832436 -0.042918395 -0.024019826 -0.053746432
0.024109202 -0.07808938 0.08638875 -0.24927227 0.08057818 -0.26305482 0.085798614 0.022342797
-0.046168905 -0.038278576 0.15850025 -0.026536591 -0.08039635 0.014116107 -0.0062809982 0.018032229
0.049996108 0.011568189 -0.08640464 -0.12992087 0.0852811 -0.034625217 0.106792875 -0.077772535
0.037431408 -0.106185034 0.053849574 0.0664401 -0.005817333 0.08742138 -0.06766977 -0.02370647
0.08787526 -0.11503744 -0.024966007 -0.011551818 -0.021518422 0.13232271 0.005993283 0.08019264
0.01518138 -0.038733914 -0.0043560266 -0.029765429 0.0700931 0.07734818 -0.043766607 -0.009305606
0.040823072 0.12183118 -0.054934114 0.036643315 -0.05872459 -0.10494014 0.010897472 -0.098905325
-0.052047618 0.1381597 -0.060616672 0.006428372 -0.088830195 0.0072189765 0.029793236 -0.040622834
-0.054014727 -0.0945346 0.015150344 0.24325271 -0.05318783 0.03461186 0.0035925913 -0.075145185
-0.08664378 0.07315415 -0.018606048 0.19181746 -0.027035315 0.1535255 -0.27836812 0.065368414
-0.032150522 0.068698436 -0.014580497 -0.15307657 0.03078375 -0.09247026 0.04173179 -0.13518542
0.12038368 0.1101368 0.12374276 -0.071781084 0.12702121 -0.046692245 -0.1354452 -0.21062338
0.071814895 0.014255589 0.10953213 -0.13288707 -0.0126093775 0.063920505 0.11881438 0.026766967
0.13581829 -0.0041176667 -0.047408994 0.032920483 -0.0984526 0.03737254 0.008299817 0.12999623
00000000: a2d8 683d 7804 14bd 0771 33bd 998d eb3c
00000010: 0f31 b6bc 773b 483c 9bfb 6ebd b987 f0bc
00000020: 08a9 2cbd ba5e 963d 1987 8b3c 3cca 3c3e
00000030: 45f0 e4bc 12be 2c3d b34c 9d3d 4454 01be
00000040: 7226 3cbd 20f6 173e 3866 683d 0742 94bd
00000050: cfd6 ba3d 93e2 843d 0b72 9f3d 6dc1 01be
00000060: 1705 033e 3a0a 633d 0333 453d 1589 b23c
00000070: 1d1c 1f3d f737 1cbd f896 373e 96f4 06be
00000080: 4edd f53d 5960 f33d 6291 823e 4339 c13c
00000090: 1e5a 153e f355 f6bc 833d 98bd 7c1e a13d
000000a0: a7a2 28bd 4281 db3d 0673 7e3d 840d 06be
000000b0: e77d 62bc e6b3 d73d 0a90 6b3d 489a b0bd
000000c0: 22c2 80bc cfed 01be 86c1 143c dc3b 1bbe
000000d0: 977f 363b 848f f53c f985 1ebe 0ee5 533d
000000e0: ffaf 53bd ac1f edbc da0e 8a3d 4990 84ba
000000f0: c045 07be 4204 94bd dc32 4cbc 8197 d53d
00000100: 6eb3 fa3d d868 11be 1907 443d f924 a73b
00000110: bd85 253d ac79 72be 6622 d43d ea4d e93d
00000120: 67bd b1bd cec3 bb3d 2e99 d6bd a33f 553c
00000130: 2c10 993d 06eb e0bb 8e22 c539 b7be dcbd
00000140: 22a4 803c e1b8 96bd 9d5b 15bd 9ecf db3d
00000150: 3135 4fbd b47d 02bc 61bc 21bd d5b2 01bc
00000160: 30d5 acbc b7c5 1abd b63d 7bbd 5a54 b2bd
00000170: f5a5 66ba f217 d93d 58b9 5e3d de78 08be
00000180: c8e4 163d 9382 6e3d 2c91 48bc 0fc7 acbc
00000190: cbd6 81bd f0d6 dabc 1030 d0bd c7a0 6c3d
000001a0: 82c4 243d d816 0bbc bf0b 42bd bfb8 e3bd
000001b0: 31b1 d83b 798c 563d cde2 4bbe 7b3c 12bd
000001c0: 7f19 f2bc 0ca2 ccbc 5890 66bd f090 9e3d
000001d0: d1a1 bfbd 4029 d6bc a257 5dbd 490f 4e3d
000001e0: 51c7 133d 074f ea3d 5e3a 0abc b8a1 3bbd
000001f0: d44f 77bc e767 07bd e537 063d 91a2 113e
00000200: eb15 5d3d 45df 1abe 1cf0 603d eef2 2abd
00000210: ed56 c4bd 844f 873d 8946 4cbe 304e f63d
00000220: 3669 863d cc05 653d a23b 47be 0781 5bbd
00000230: 0032 ec3c 33cb 2fbd 3ac5 c4bc 3825 5cbd
00000240: a980 c53c 53ed 9fbd 96ec b03d 3b41 7fbe
00000250: 2c06 a53d 1faf 86be 2fb7 af3d 3e08 b73c
00000260: 9b1b 3dbd ffc9 1cbd e44d 223e 4463 d9bc
00000270: d7a6 a4bd 3e47 673c d5d0 cdbb 53b8 933c
00000280: b8c8 4c3d 8088 3d3c eaf4 b0bd fa09 05be
00000290: dba7 ae3d 2cd3 0dbd 39b6 da3d 3547 9fbd
000002a0: ad51 193d 8a77 d9bd 5f91 5c3d bf11 883d
000002b0: 539f bebb fb09 b33d 7396 8abd 1234 c2bc
000002c0: f2f7 b33d c098 ebbd 8385 ccbc d643 3dbc
000002d0: 6747 b0bc 9b7f 073e 4d63 c43b 0a3c a43d
000002e0: 53bb 783c 74a7 1ebd 00bd 8ebb a1d6 f3bc
000002f0: f98c 8f3d b968 9e3d 9d44 33bd 8a76 18bc
00000300: 1836 273d a082 f93d 9802 61bd 4d17 163d
00000310: 3289 70bd dbea d6bd 4f8b 323c e08e cabd
00000320: e22f 55bd bd79 0d3e 3049 78bd 18a5 d23b
00000330: 9bec b5bd 2a8d ec3b f210 f43c 2164 26bd
00000340: 8c3e 5dbd 5b9b c1bd 2639 783c 3d17 793e
00000350: 7bdb 59bd 2ac5 0d3d ae71 6b3b b8e5 99bd
00000360: 4b72 b1bd d8d1 953d b66b 98bc cc6b 443e
00000370: 2a79 ddbc ca35 1d3e 4486 8ebe e0df 853d
00000380: 44b0 03bd c4b1 8c3d 09e3 6ebc 1bc0 1cbe
00000390: 342e fc3c 0c61 bdbd f4ee 2a3d 0c6e 0abe
000003a0: b88b f63d 678f e13d d86c fd3d f601 93bd
000003b0: d911 023e 5e40 3fbd 26b2 0abe a8ad 57be
000003c0: b013 933d 4690 693c 6252 e03d 8c13 08be
000003d0: 9097 4ebc c1e8 823d f454 f33d 6646 db3c
000003e0: f313 0b3e 7eed 86bb ef2f 42bd a1d7 063d
000003f0: 84a1 c9bd f313 193d f5fb 073c bb1d 053e

2.bias f4 [256]
-0.16496827 -0.11830471 -0.17768703 -0.15297975 -0.0345725 -0.10068792 -0.06103946 -0.032015864
-0.025214858 -0.06720822 -0.098611966 -0.22104956 -0.018446615 -0.053586498 -0.10575973 -0.15047917
-0.15584314 0.016162021 -0.0846861 0.063143656 -0.1307854 -0.042044226 -0.08676837 -0.08353342
-0.13270661 -0.008931386 -0.15752718 -0.07319078 -0.109434016 0.044376776 0.022393445 0.017069021
-0.083145276 -0.09407598 -0.059834637 -0.018308386 -0.07712556 -0.10441498 -0.07733173 -0.04321967
-0.13115938 -0.0539647 -0.10472011 -0.07703988 -0.07243366 -0.026234185 -0.093525514 0.057669256
-0.024652783 -0.032169044 0.051620882 0.04225687 -0.15397808 -0.07592323 -0.12456776 -0.011533616
-0.0077253734 -0.04787993 0.04708727 -0.044576503 0.022257507 0.08673894 -0.0056987037 -0.11605846
-0.12259174 0.052125398 0.0030669307 -0.16568016 0.013739995 -0.21485889 -0.13886823 0.053499915
-0.06436984 -0.18963003 -0.13369882 -0.15226826 -0.041459594 -0.027055223 -0.19093193 -0.12772803
-0.15775195 -0.13808292 -0.168519 0.08139944 -0.2635663 -0.1045006 -0.09360538 0.036310907
-0.0966382 0.01969879 0.11239101 -0.008902759 -0.10625131 -0.15605682 -0.24681824 -0.06354048
0.09296685 -0.10202606 -0.063500546 -0.2190029 -0.03927701 -0.09793818 -0.033333324 -0.24726161
-0.13502239 -0.015415873 -0.055286027 0.06499222 -0.061430134 -0.07875742 -0.12751143 -0.07815617
-0.13313869 -0.18861835 0.054048087 -0.17312993 -0.06988898 -0.15491961 0.007152812 -0.034476373
-0.1478892 0.02503894 -0.12856284 -0.2786094 -0.18807612 -0.07209263 -0.114275165 -0.021218829
0.0459193 -0.2085893 -0.06751772 -0.14518365 -0.15003502 -0.061191015 0.016660685 -0.090222985
0.0307276 -0.07290805 -0.25173813 -0.033909127 -0.04013351 -0.015363048 -0.06730682 -0.11732943
-0.04548006 -0.12406239 -0.14938043 -0.19320026 -0.026348632 -0.04007791 -0.18447298 -0.15388983
-0.13962632 -0.07257862 0.033491686 0.0069479845 -0.21658415 -0.09704569 -0.07058775 -0.048494395
-0.15501778 -0.04322363 -0.14154041 -0.11980503 -0.035332903 -0.05939362 0.010718527 -0.15265656
-0.038937602 -0.16974863 -0.13502389 0.011135383 -0.0059852474 0.015426282 -0.14095262 -0.16003351
-0.05385002 -0.13352266 -0.2839227 -0.23942922 -0.026697434 -0.16489401 -0.03526466 -0.08022381
-0.097281195 -0.07603499 -0.14056355 -0.02415808 -0.18025157 -0.12009299 -0.017968087 -0.13013206
-0.061829444 -0.06374193 -0.08579642 -0.25963652 -0.06176773 0.020203141 -0.10011472 0.010683626
-0.12243769 -0.07200791 -0.06985752 -0.07289729 -0.11832268 -0.12524556 -0.018534174 -0.09078773
-0.11875448 -0.030367758 -0.047521878 -0.13216665 -0.28243908 -0.09758351 -0.12495576 -0.023196664
-0.17842032 -0.0531686 -0.15994889 -0.029115342 -0.07939462 -0.07702752 -0.1075283 -0.13452673
-0.061093558 0.10761513 -0.12873754 -0.009046498 -0.105620325 -0.061096545 -0.16933046 0.0149301905
-0.082005635 -0.12378726 -0.14274152 -0.186505 -0.096147574 -0.10134054 -0.15168762 -0.16072565
-0.09388701 0.0133051155 -0.05683358 -0.073017426 -0.067184255 -0.10514843 -0.07198814 0.034079604
0.0013056921 0.010334516 -0.102141775 0.020963067 -0.17392646 -0.12988743 -0.00049271574 -0.12074267
00000000: 71ed 28be bd49 f2bd 97f3 35be b9a6 1cbe
00000010: e59b 0dbd 7835 cebd 8304 7abd 1123 03bd
00000020: 648f cebc 77a4 89bd 12f5 c9bd d15a 62be
00000030: 5b1d 97bc 847d 5bbd 8f98 d8bd 3617 1abe
00000040: 5895 1fbe 3766 843c e86f adbd 7651 813d
00000050: 9cec 05be 9136 2cbd 9db3 b1bd 9213 abbd
00000060: 3ee4 07be f354 12bc ce4e 21be 0ce5 95bd
00000070: f11e e0bd 6cc4 353d 7572 b73c 55d4 8b3c
00000080: 1248 aabd e8aa c0bd 2a15 75bd 78fb 95bc
00000090: 01f4 9dbd 85d7 d5bd 1960 9ebd 1c07 31bd
000000a0: a54e 06be 170a 5dbd 7f77 d6bd 16c7 9dbd
000000b0: 1958 94bd 13e9 d6bc 4e8a bfbd 9936 6c3d
000000c0: a2f4 c9bc b0c3 03bd 6b70 533d 8a15 2d3d
000000d0: 6eac 1dbe a37d 9bbd 621d ffbd 7ef7 3cbc
000000e0: 2125 fdbb bf1d 44bd 95de 403d da95 36bd
000000f0: 6055 b63c 2fa4 b13d 31bc babb 0fb0 edbd
00000100: 6111 fbbd 7181 553d 8ffe 483b 0fa8 29be
00000110: b71d 613c f803 5cbe 7933 0ebe ba22 5b3d
00000120: 56d4 83bd 602e 42be 58e8 08be 36ec 1bbe
00000130: 89d1 29bd eaa2 ddbc a983 43be 23cb 02be
00000140: ba89 21be 9c65 0dbe 3f90 2cbe c0b4 a63d
00000150: 29f2 86be 6904 d6bd 2db4 bfbd bfba 143d
00000160: 40ea c5bd 5b5f a13c 422d e63d e1dc 11bc
00000170: 499a d9bd 5ccd 1fbe ecbd 7cbe 8321 82bd
00000180: 6765 be3d 0af3 d0bd 930c 82bd 4c42 60be
00000190: eee0 20bd d093 c8bd 8688 08bd 2632 7dbe
000001a0: 4f43 0abe dc92 7cbc 9a73 62bd a41a 853d
000001b0: 2a9e 7bbd 924b a1bd 5b92 02be 5810 a0bd
000001c0: 8255 08be 2b25 41be 8761 5d3d f948 31be
000001d0: f421 8fbd 3fa3 1ebe 2362 ea3b 1937 0dbd
000001e0: 4470 17be 771e cd3c faa5 03be e4a5 8ebe
000001f0: 0797 40be 4da5 93bd 1909 eabd 1cd3 adbc
00000200: e015 3c3d 6f98 55be bb46 8abd 06ab 14be
00000210: c8a2 19be 6ea3 7abd fd7b 883c d4c6 b8bd
00000220: 73b8 fb3c d150 95bd d2e3 80be 4ce4 0abd
00000230: 0963 24bd 4bb5 7bbc 28d8 89bd 6a4a f0bd
00000240: 4d49 3abd 6c14 febd 2ff7 18be 4ad6 45be
00000250: 16d9 d7bc bc28 24bd 7ce6 3cbe 4c95 1dbe
00000260: 34fa 0ebe 19a4 94bd 942e 093d ebab e33b
00000270: 3cc8 5dbe e4bf c6bd 4f90 90bd 0fa2 46bd
00000280: fbbc 1ebe 430b 31bd f8ef 10be 575c f5bd
00000290: 3cb9 10bd b946 73bd c39c 2f3c 0052 1cbe
000002a0: 097d 1fbd 96d2 2dbe b443 0abe 2e71 363c
000002b0: e51f c4bb 84be 7c3c e255 10be d3df 23be
000002c0: d791 5cbd 2aba 08be 515e 91be ef2c 75be
000002d0: 94b4 dabc fad9 28be ad71 10bd 624c a4bd
000002e0: 5d3b c7bd 3cb8 9bbd e4ef 0fbe 2ae7 c5bc
000002f0: de93 38be 50f3 f5bd cf31 93bc 5741 05be
00000300: df40 7dbd 218b 82bd 09b6 afbd 14ef 84be
00000310: 2900 7dbd 0f81 a53c f208 cdbd 600a 2f3c
00000320: 9dc0 fabd e278 93bd 7611 8fbd 2d4b 95bd
00000330: 2953 f2bd 5f40 00be fbd4 97bc ebee b9bd
00000340: 8c35 f3bd cec5 f8bc 4da6 42bd b256 07be
00000350: db9b 90be ddd9 c7bd cee8 ffbd ee06 bebc
00000360: d1b3 36be 51c7 59bd a4c9 23be 4c83 eebc
00000370: a699 a2bd 9bc0 9dbd cc37 dcbd 60c1 09be
00000380: 3d3d 7abd 5265 dc3d c6d3 03be c337 14bc
00000390: 784f d8bd 5f40 7abd f764 2dbe c29d 743c
000003a0: 92f2 a7bd 2d84 fdbd d52a 12be 2bfb 3ebe
000003b0: 05e9 c4bd a18b cfbd 0054 1bbe 4495 24be
000003c0: d547 c0bd b3fd 593c 54ca 68bd 298a 95bd
000003d0: e697 89bd 0f58 d7bd 856e 93bd 0e97 0b3d
000003e0: c223 ab3a 1a52 293c b52f d1bd bdba ab3c
000003f0: c719 32be 3601 05be 9829 01ba ef47 f7bd

4.weight f4 [128, 256]
0.048247598 -0.07707582 0.093159735 0.090385765 0.053772148 -0.09350936 -0.041726 0.021500962
0.056455433 -0.09621465 -0.090136446 -0.00619694 -0.1852351 0.14784895 -0.021871971 -0.06990519
0.100320704 -0.042292826 0.07491945 0.022391614 -0.06973053 0.023191713 0.077505924 0.19624102
0.041237332 0.06993778 -0.14232199 0.20014827 -0.12884235 0.06466179 0.012235571 -0.012772599
-0.056663904 0.09348011 0.035444047 0.05526727 0.07691666 0.012781875 -0.030664641 0.14855994
0.05436382 0.04255637 -0.017311282 0.079945795 -0.09007063 -0.07223993 -0.14839199 -0.071507074
0.037897985 0.14431253 -0.14558278 0.015069276 0.082820505 -0.075834244 -0.09034612 -0.017171785
0.07489311 -0.10696111 -0.026787784 -0.0893871 0.016508447 -0.06260836 0.009145917 -0.08084359
-0.05383237 -0.16657919 -0.10605888 0.14528671 0.10294656 0.0025958088 -0.02685268 -0.08054893
0.17936437 -0.0062272833 -0.05164002 -0.021734001 -0.18075338 -0.022745749 0.028845163 0.054713577
-0.04767459 0.001156309 0.027398461 0.04630462 0.06136237 0.12891325 0.059912574 0.0467257
0.015153211 0.09195673 -0.04490984 -0.04672688 -0.16627079 0.006479169 -0.0027600958 0.0020301405
-0.023632623 -0.08736479 -0.06530556 0.011428888 0.0467569 -0.04754052 -0.11586137 0.07995192
-0.007221134 -0.17560206 -0.12485344 0.014495023 0.19912831 0.077724315 -0.052733272 0.15963215
0.07841023 -0.04707411 0.089332074 0.007883342 -0.13923353 -0.31419727 -0.020890612 -0.09905043
-0.033268478 -0.0006249816 0.04212569 -0.007565341 0.031388666 -0.01787678 -0.048558496 -0.070374385
-0.11806823 0.06544217 0.039458238 0.026382385 -0.01984589 -0.059077516 0.0010349363 0.008815716
-0.055525973 -0.10987394 0.0013119294 -0.12937386 -0.12272896 0.016798273 0.05558013 0.029467305
0.056633774 0.12041172 -0.044432923 -0.05185494 0.09231898 0.050312065 -0.025546603 0.031998523
0.18499394 -0.06793606 0.06536016 0.024400724 0.05399677 0.063652895 -0.10352828 -0.06287491
0.17157803 -0.0261537 0.02766148 -0.20857172 -0.0292241 0.10862655 -0.09047287 0.015264809
-0.08292422 0.11256815 -0.024359496 -0.03568684 0.15714902 0.11111617 0.020961648 0.06361235
-0.046911784 0.0066696303 0.14993621 0.13287458 0.04008011 0.030315788 -0.036000423 0.02796598
-0.11145593 -0.10314276 -0.032365628 0.05042897 -0.018212525 0.10959174 -0.011151628 -0.053500198
-0.223865 0.011461755 -0.13063776 0.16916591 -0.103921816 -0.017203715 -0.017646858 0.08331019
0.038050126 0.07959024 -0.14126669 0.03686762 0.14981672 -0.14306703 0.2005154 -0.054485787
-0.12454481 -0.0027452756 -0.057059158 0.012209283 0.116991945 -0.019685466 0.084931836 0.0027185495
-0.06138332 0.015454155 -0.02429165 0.060126826 -0.040331524 -0.0491098 -0.043716434 0.10162173
0.013265942 -0.010656929 0.13093945 0.027751295 -0.08063556 -0.07546366 0.03135683 -0.041178375
-0.0056214626 -0.0019503305 0.057878118 -0.0019115582 -0.025667135 0.11255506 -0.17536505 0.03623169
0.08983401 0.104444176 -0.05560788 -0.13613321 0.07989133 0.037663784 -0.10166847 -0.043182563
-0.055991672 0.00024326195 -0.06937036 -0.06384709 -0.04952447 -0.14159189 0.029060153 0.045539286
00000000: 469f 453d edd9 9dbd 88ca be3d 2c1c b93d
00000010: 2f40 5c3d d681 bfbd e2e8 2abd c922 b03c
00000020: d03d 673d 300c c5bd 7599 b8bd b30f cbbb
00000030: 45ae 3dbe b765 173e d92c b3bc 742a 8fbd
00000040: f174 cd3d 3e3b 2dbd 5e6f 993d 9e6e b73c
00000050: e1ce 8ebd 8cfc bd3c 6dbb 9e3d 68f3 483e
00000060: 7ae8 283d 8a3b 8f3d dbbc 11be abf3 4c3e
00000070: 40ef 03be 676d 843d b477 483c 2a44 51bc
00000080: 6918 68bd 8072 bf3d c72d 113d ef5f 623d
00000090: 7b86 9d3d 126b 513c 6a34 fbbc 1920 183e
000000a0: 99ac 5e3d 974f 2e3d 64d0 8dbc 9fba a33d
000000b0: f376 b8bd 87f2 93bd 12f4 17be 4d72 92bd
000000c0: eb3a 1b3d aac6 133e a713 15be 20e5 763c
000000d0: cc9d a93d fc4e 9bbd 6307 b9bd d8ab 8cbc
000000e0: 8f61 993d 6d0e dbbd 0e72 dbbc 9510 b7bd
000000f0: b93c 873c d038 80bd c2d8 153c 5391 a5bd
00000100: 557f 5cbd bc93 2abe 6635 d9bd 0ac6 143e
00000110: a5d5 d23d 721e 2a3b 27fa dbbc d6f6 a4bd
00000120: 4bab 373e 3d0e ccbb 7c84 53bd 810b b2bc
00000130: 6a17 39be 4b55 babc b14c ec3c 581b 603d
00000140: 6e46 43bd 4b8f 973a bd72 e03c eaa9 3d3d
00000150: 1c57 7b3d d601 043e e366 753d 7363 3f3d
00000160: 2c45 783c cf53 bc3d 61f3 37bd af64 3fbd
00000170: e442 2abe 354f d43b b9e2 34bb 1b0c 053b
00000180: 3499 c1bc 50ec b2bd ecbe 85bd 3b40 3b3c
00000190: 2a84 3f3d d9b9 42bd ba48 edbd d5bd a33d
000001a0: 439f ecbb 07d1 33be 29b3 ffbd 887c 6d3c
000001b0: 4be8 4b3e ed2d 9f3d d8fe 57bd 9c76 233e
000001c0: 8b95 a03d c8d0 40bd bcf3 b63d 2229 013c
000001d0: 3c93 0ebe 77de a0be ca22 abbc f4da cabd
000001e0: 8744 08bd ced5 23ba fd8b 2c3d aee6 f7bb
000001f0: 6791 003d 5372 92bc 46e5 46bd 7220 90bd
00000200: c2cd f1bd 8b06 863d f69e 213d df1f d83c
00000210: d993 a2bc 44fb 71bd b3a6 873a cb6f 103c
00000220: 346f 63bd 9705 e1bd 0cf5 ab3a 957a 04be
00000230: 5259 fbbd 889c 893c fea7 633d 6b65 f13c
00000240: d1f8 673d 6b9a f63d 4cff 35bd d865 54bd
00000250: bc11 bd3d 0614 4e3d 1c47 d1bc e210 033d
00000260: 0d6f 3d3e 1022 8bbd 8cdb 853d 07e4 c73c
00000270: b82b 5d3d 735c 823d a306 d4bd 90c4 80bd
00000280: 27b2 2f3e 4940 d6bc 549a e23c d393 55be
00000290: 6167 efbc 9977 de3d d749 b9bd 4019 7a3c
000002a0: 2cd4 a9bd 218a e63d 918d c7bc 5d2c 12bd
000002b0: aceb 203e e090 e33d c3b7 ab3c 3147 823d
000002c0: 9226 40bd ea8c da3b e188 193e 4610 083e
000002d0: 0b2b 243d d158 f83c 2e75 13bd e918 e53c
000002e0: 0243 e4bd 833c d3bd d291 04bd 9c8e 4e3d
000002f0: 6f32 95bc a271 e03d 51b5 36bc 0623 5bbd
00000300: de3c 65be 16ca 3b3c e8c5 05be d439 2d3e
00000310: f6d4 d4bd ceee 8cbc 2590 90bc 889e aa3d
00000320: 73da 1b3d 3500 a33d 37a8 10be 8002 173d
00000330: 8e69 193e 2a80 12be e953 4d3e 7d2c 5fbd
00000340: 5911 ffbd 15ea 33bb ddb6 69bd 7209 483c
00000350: 7999 ef3d 6a43 a1bc bef0 ad3d b129 323b
00000360: 136d 7bbd 6d33 7d3c 48ff c6bc 8c47 763d
00000370: ab32 25bd 5c27 49bd 0110 33bd 0e1f d03d
00000380: 6559 593c 669a 2ebc fe14 063e af56 e33c
00000390: 4224 a5bd b18c 9abd 0570 003d a8aa 28bd
000003a0: 3f34 b8bb 3ba2 ffba 9b11 6d3d 408d faba
000003b0: e243 d2bc 4483 e63d e592 33be ae67 143d
000003c0: e5fa b73d d4e6 d53d 17c5 63bd 8166 0bbe
000003d0: 119e a33d 5745 1a3d 8f37 d0bd 33e0 30bd
000003e0: 8657 65bd 2214 7f39 0c12 8ebd 43c2 82bd
000003f0: 2cda 4abd 77fd 10be 8f0f ee3c 6787 3a3d

4.bias f4 [128]
-0.118975446 -0.023353802 -0.08693547 -0.1351114 0.031503573 -0.03422401 -0.062247686 -0.07696889
-0.23008686 -0.14413635 -0.05063963 -0.006339331 -0.08807854 -0.12691669 -0.032185562 -0.040779155
-0.0795065 -0.012981864 -0.19979638 -0.030183706 0.046728272 -0.1027463 -0.07168018 -0.027331986
-0.065605834 -0.07193782 -0.012475136 0.0056674057 -0.04899899 -0.12904721 -0.21129128 -0.0005380275
-0.10860988 0.01963514 -0.11668985 -0.045491572 0.020425461 0.055092383 0.0016302725 -0.060008436
-0.037579168 -0.09441468 -0.05691902 -0.012473919 -0.059724048 -0.12863664 -0.1073053 -0.09315398
-0.07980462 0.045044877 -0.021837607 -0.1514572 -0.12927534 -0.008714 -0.067922115 -0.0381708
-0.056432344 -0.13872169 -0.021234883 -0.21042474 0.012388297 0.0065227454 -0.04392794 -0.082440384
-0.11818355 -0.010425782 0.006793893 -0.0116556585 -0.10602257 -0.059624996 -0.07950539 -0.07099875
-0.08636463 0.010192028 -0.25865966 0.051123355 -0.030407833 -0.026467696 -0.11051423 0.029662574
-0.030367404 -0.12029943 -0.03125703 -0.046024006 0.05306558 0.0908739 -0.00095944706 -0.051472094
-0.119135246 -0.09533188 0.003947777 -0.048394382 -0.24147059 -0.043897264 -0.031856317 -0.20271347
0.013565163 0.015684363 -0.04996014 -0.015058776 -0.047157682 -0.16832715 -0.15200618 -0.008573623
0.0020093166 -0.09763754 -0.13369997 -0.11212443 -0.02746226 -0.073122114 -0.14547719 -0.13289222
-0.071042076 -0.18713696 -0.06759605 -0.06840853 -0.15469007 -0.19769919 -0.08167563 -0.18008046
0.036245488 0.0058983145 -0.0432769 0.006948488 0.06529505 -0.11176103 -0.1139487 -0.057267334
00000000: 66a9 f3bd 7950 bfbc 390b b2bd a55a 0abe
00000010: e409 013d 7a2e 0cbd 6ef7 7ebd dea1 9dbd
00000020: e49b 6bbe 7b98 13be 806b 4fbd 2aba cfbb
00000030: 8662 b4bd 73f6 01be 02d5 03bd 0b08 27bd
00000040: 4ed4 a2bd e2b1 54bc 6c97 4cbe d243 f7bc
00000050: 2566 3f3d a76c d2bd 0fcd 92bd 54e7 dfbc
00000060: 5a5c 86bd 2354 93bd 8364 4cbc a5b5 b93b
00000070: 2ab3 48bd f424 04be be5c 58be 6a0a 0dba
00000080: db6e debd e0d9 a03c 17fb eebd 5f55 3abd
00000090: 4c53 a73c 8da8 613d deae d53a 68cb 75bd
000000a0: 9dec 19bd 7c5c c1bd eb23 69bd 695f 4cbc
000000b0: 34a1 74bd 53b9 03be e2c2 dbbd 84c7 bebd
000000c0: 9b70 a3bd fa80 383d c8e4 b2bc 9917 1bbe
000000d0: c160 04be 2ac5 0ebc c01a 8bbd fc58 1cbd
000000e0: 9a25 67bd 0f0d 0ebe c7f4 adbc 9579 57be
000000f0: 49f8 4a3c c1bc d53b c9ed 33bd 81d6 a8bd
00000100: 380a f2bd e6d0 2abc 4e9f de3b 60f7 3ebc
00000110: 5c22 d9bd 5739 74bd b9d3 a2bd cb67 91bd
00000120: f0df b0bd 77fc 263c 0a6f 84be b966 513d
00000130: d919 f9bc c8d2 d8bc 4955 e2bd edfe f23c
00000140: 10c5 f8bc 8c5f f6bd 5f07 00bd ab83 3cbd
00000150: 4b5b 593d 181c ba3d 6783 7bba 67d4 52bd
00000160: 2efd f3bd 5c3d c3bd 5b5c 813b 3039 46bd
00000170: 1144 77be 9ecd 33bd c57b 02bd 1f94 4fbe
00000180: 6b40 5e3c 7e7c 803c 01a3 4cbd 16b9 76bc
00000190: 6a28 41bd f45d 2cbe 82a7 1bbe 6278 0cbc
000001a0: bdae 033b 31f6 c7bd a5e8 08be 7ea1 e5bd
000001b0: 89f8 e0bc 0cc1 95bd f9f7 14be e614 08be
000001c0: 827e 91bd d5a0 3fbe cc6f 8abd c519 8cbd
000001d0: 1367 1ebe a871 4abe 8d45 a7bd 0367 38be
000001e0: 2676 143d a646 c13b 1e43 31bd 24b0 e33b
000001f0: 69b9 853d f8e2 e4bd f05d e9bd 2791 6abd

6.weight f4 [12, 128]
0.076899074 0.036476523 0.04404141 -0.05188463 -0.10463902 0.015674552 0.05686646 -0.0023712998
0.13078849 0.03353439 0.022681355 0.06569714 -0.009537078 -0.0078929 -0.04719816 -0.007665255
-0.06174226 -0.033399373 0.06354996 -0.08753508 0.029443013 -0.04620828 -0.028035894 -0.014565743
-0.0052163047 -0.071510136 0.06782095 0.12673129 -0.014764823 0.08474213 0.018863657 -0.009750034
0.0974683 -0.010690326 0.016420301 0.012827112 0.030292518 -0.023775227 0.0664492 0.01036786
0.028217481 -0.04063627 0.008331193 0.05969903 0.0053934543 -0.022996921 0.06842968 -0.054490317
-0.06277887 0.018078504 0.07202372 0.052167844 0.077556916 0.063652046 0.025155632 0.035916418
-0.02144674 0.038551405 0.03931712 0.030256636 -0.03882912 0.024800649 -0.03278126 -0.028139368
0.00460996 -0.08156867 -0.042595603 -0.062428918 0.011449559 0.07886963 -0.09249429 -0.026811214
0.037343282 0.09173514 -0.04822956 -0.016532594 -0.007585325 -0.12968174 0.06525664 -0.02451665
0.084269546 0.005502957 0.09818518 -0.050810996 -0.033493828 0.065863 0.10077619 0.040586904
-0.12272416 -0.041627083 -0.04873232 0.0065650754 0.0373727 0.003395157 0.027807781 -0.06787485
-0.13868861 0.024470093 -0.08312058 -0.013237467 -0.08248148 -0.011625359 -0.032479055 -0.1059538
-0.020568646 0.08651638 -0.039794948 -0.060124543 -0.12575364 -0.011260142 0.06219294 -0.030925034
0.013054037 -0.044543285 -0.08768302 0.023193069 -0.052542478 -0.018272175 0.081603326 -0.022565259
0.10091012 -0.026995923 0.016516048 -0.112626806 0.010004411 0.02847006 -0.011478285 -0.05058497
-0.07145982 0.05037221 0.038884826 0.084409244 0.14240979 -0.05218725 0.027362159 0.003824772
-0.100352824 0.011822277 -0.021321952 -0.035140403 -0.034614224 -0.00717274 0.01890948 0.016384311
-0.014640292 0.024631426 -0.051708084 -0.055945087 -0.054550745 0.036406048 0.022976393 -0.04834433
-0.013731744 -0.033912998 0.062561184 0.035071343 -0.050593622 0.002707269 0.03154173 0.0026125272
-0.05224124 0.009768834 0.015246969 0.06444723 -0.00696985 0.04967819 0.0011104604 -0.042219464
0.07984067 0.013636791 0.006134312 0.04295863 -0.13881113 0.04912552 0.050603796 0.0015854298
0.0037674576 -0.006437929 -0.04266672 0.020461565 0.0720714 -0.039243456 0.036808282 -0.056164723
-0.0077969744 -0.16751628 0.088196576 -0.03795763 0.076942824 0.0056805927 0.067725815 0.042048555
0.03224492 0.008734169 -0.020754619 0.010829699 0.049116075 -0.020926367 -0.03549589 0.029768137
-0.040835567 -0.014203193 -0.053773988 0.014920666 0.01700878 -0.011920902 0.07615815 -0.041285213
-0.011772992 -0.019448604 -0.012910991 0.0059927762 0.0005268547 0.019083304 0.03641944 -0.034110572
-0.033642024 0.008840262 -0.021010032 0.028184736 -0.08467763 -0.015856117 0.04362952 0.040194985
-0.071997404 -0.0066218437 -0.13776068 -0.004851634 0.019650744 -0.023331882 -0.197228 0.014070422
0.00343546 -0.039119806 -0.006968976 -0.034909092 0.055127554 0.005226707 -0.013902796 0.028418785
0.036210872 -0.011545788 -0.025512064 0.058072582 -0.012233542 -0.06333834 -0.061337765 0.01762662
-0.042370837 -0.011230028 -0.0018414623 -0.04081589 -0.015036311 0.108402245 0.05898015 0.01844899
00000000: 437d 9d3d 6868 153d c464 343d fa84 54bd
00000010: fc4c d6bd eb67 803c ceec 683d cf67 1bbb
00000020: 6bed 053e 5b5b 093d 40ce b93c 398c 863d
00000030: 6841 1cbc 3951 01bc dc52 41bd d22c fbbb
00000040: 74e5 7cbd c8cd 08bd 7b26 823d 9845 b3bd
00000050: 7932 f13c e544 3dbd 88ab e5bc 27a5 6ebc
00000060: 89ed aabb e873 92bd b6e5 8a3d d9c5 013e
00000070: 28e8 71bc 488d ad3d f587 9a3c 9bbe 1fbc
00000080: 769d c73d 7a26 2fbc de83 863c cf28 523c
00000090: 0428 f83c 44c4 c2bc 8516 883d f5dd 293c
000000a0: 5928 e73c 3872 26bd 8e7f 083c f886 743d
000000b0: 93bb b03b 0a64 bcbc dc24 8c3d 3d31 5fbd
000000c0: 3592 80bd 5f19 943c 2c81 933d f3ad 553d
000000d0: 29d6 9e3d 015c 823d 2f13 ce3c 181d 133d
000000e0: 13b1 afbc 14e8 1d3d fd0a 213d c4dc f73c
000000f0: 490b 1fbd bb2a cb3c a445 06bd 8884 e6bc
00000100: 260f 973b 7a0d a7bd ba78 2ebd 77b5 7fbd
00000110: ee96 3b3c 6786 a13d a56d bdbd 31a3 dbbc
00000120: 45f5 183d a2df bb3d 5c8c 45bd 5d6f 87bc
00000130: 518e f8bb 4acb 04be 46a5 853d 24d7 c8bc
00000140: 8395 ac3d 2652 b43b 5015 c93d 311f 50bd
00000150: d330 09bd 2ee3 863d bf63 ce3d 743e 263d
00000160: ce56 fbbd 2981 2abd 8b9b 47bd d81f d73b
00000170: 1e14 193d 4881 5e3b 25cd e33c f801 8bbd
00000180: 6304 0ebe 8175 c83c 1f3b aabd f6e1 58bc
00000190: 0dec a8bd 4a78 3ebc c208 05bd 4efe d8bd
000001a0: 947f a8bc 802f b13d 0700 23bd 2745 76bd
000001b0: 90c5 00be 757c 38bc 06be 7e3d 7f56 fdbc
000001c0: 99e0 553c 0573 36bd 2893 b3bd 64ff bd3c
000001d0: c836 57bd 87af 95bc a51f a73d c7da b8bc
000001e0: f7a9 ce3d 8e26 ddbc aa4c 873c e2a8 e6bd
000001f0: 8be9 233c 0b3a e93c 6b0f 3cbc 2f32 4fbd
00000200: 8759 92bd 1753 4e3d b245 1f3d c1de ac3d
00000210: dfd3 113e 4cc2 55bd 9b26 e03c 07a9 7a3b
00000220: c885 cdbd 39b2 413c 60ab aebc 62ef 0fbd
00000230: a5c7 0dbd 4e09 ebbb 0ee8 9a3c 6438 863c
00000240: d6dd 6fbc d8c7 c93c dbcb 53bd ad26 65bd
00000250: 9a70 5fbd 821e 153d fd38 bc3c b404 46bd
00000260: 1cfb 60bc 5be8 0abd 1420 803d f8a6 0f3d
00000270: 423b 4fbd 706c 313b e731 013d ef36 2b3b
00000280: e9fa 55bd 760d 203c 6cce 793c e9fc 833d
00000290: 5763 e4bb 5c7b 4b3d de8c 913a 51ee 2cbd
000002a0: 8183 a33d d96c 5f3c 5702 c93b 63f5 2f3d
000002b0: 8124 0ebe d737 493d ed45 4f3d 32ce cf3a
000002c0: 73e7 763b 43f5 d2bb 4cc3 2ebd 039f a73c
000002d0: 2c9a 933d bfbd 20bd 48c4 163d fb0c 66bd
000002e0: c37d ffbb 6389 2bbe 68a0 b43d 7679 1bbd
000002f0: 3394 9d3d 4424 ba3b d5b3 8a3d 1b3b 2c3d
00000300: 4013 043d c319 0f3c 9705 aabc 0d6f 313c
00000310: f02d 493d c66d abbc 2364 11bd 4fdc f33c
00000320: 3243 27bd 82b4 68bc 1d42 5cbd cf75 743c
00000330: ff55 8b3c e34f 43bc cef8 9b3d af1a 29bd
00000340: 82e3 40bc ae52 9fbc 9f88 53bc 0d5f c43b
00000350: 9f1c 0a3a 9754 9c3c 8d2c 153d 87b7 0bbd
00000360: 38cc 09bd bfd6 103c 3b1d acbc ade3 e63c
00000370: 776b adbd b0e4 81bc deb4 323d 7fa3 243d
00000380: 6073 93bd 0dfc d8bb 2311 0dbe 75fa 9ebb
00000390: 99fa a03c 8122 bfbc 23f6 49be a187 663c
000003a0: 7425 613b 173c 20bd 025c e4bb d6fc 0ebd
000003b0: 6ecd 613d cc44 ab3b 8ec8 63bc 83ce e83c
000003c0: da51 143d 8b2a 3dbc adfe d0bc 84dd 6d3d
000003d0: 326f 48bc 88b7 81bd 4f3d 7bbd b465 903c
000003e0: 0b8d 2dbd 27fe 37bc 395d f1ba 902e 27bd
000003f0: dc5a 76bc ff01 de3d 2b95 713d 5622 973c

6.bias f4 [12]
-0.07607122 0.13910961 0.018444102 -0.031147283 0.17640056 0.03224677 -0.14996164 0.07224626
0.21362337 0.14520942 0.1632204 0.19260621
00000000: 3acb 9bbd c072 0e3e 1618 973c 9628 ffbc
00000010: 59a2 343e 3015 043d 8b8f 19be d9f5 933d
00000020: 16c0 5a3e c7b1 143e 4023 273e 903a 453e
